Model: "model"
_________________________________________________________________
Layer (type)                 Output Shape              Param #   
=================================================================
input_2 (InputLayer)         [(None, 200, 200, 3)]     0         
_________________________________________________________________
data_augmentation (Sequentia (None, 200, 200, 3)       0         
_________________________________________________________________
rescaling (Rescaling)        (None, 200, 200, 3)       0         
_________________________________________________________________
xception (Functional)        (None, 7, 7, 2048)        20861480  
_________________________________________________________________
global_average_pooling2d (Gl (None, 2048)              0         
_________________________________________________________________
dropout (Dropout)            (None, 2048)              0         
_________________________________________________________________
dense (Dense)                (None, 3)                 6147      
=================================================================
Total params: 20,867,627
Trainable params: 6,147
Non-trainable params: 20,861,480
_________________________________________________________________
